<?xml version="1.0"?>
<net name="gaze-estimation-adas-0002" version="3" batch="1">
	<layers>
		<layer name="right_eye_image" type="Input" precision="FP32" id="0">
			<output>
				<port id="0">
					<dim>1</dim>
					<dim>3</dim>
					<dim>60</dim>
					<dim>60</dim>
				</port>
			</output>
		</layer>
		<layer name="Mul1_1421/Fused_Mul_/FusedScaleShift_" type="ScaleShift" precision="FP32" id="1">
			<data broadcast="0" />
			<input>
				<port id="0">
					<dim>1</dim>
					<dim>3</dim>
					<dim>60</dim>
					<dim>60</dim>
				</port>
			</input>
			<output>
				<port id="1">
					<dim>1</dim>
					<dim>3</dim>
					<dim>60</dim>
					<dim>60</dim>
				</port>
			</output>
			<blobs>
				<biases offset="0" size="12" />
				<weights offset="12" size="12" />
			</blobs>
		</layer>
		<layer name="102" type="Convolution" precision="FP32" id="2">
			<data dilations="1,1" group="1" kernel="3,3" output="32" pads_begin="1,1" pads_end="1,1" quantization_level="I8" strides="1,1" />
			<input>
				<port id="0">
					<dim>1</dim>
					<dim>3</dim>
					<dim>60</dim>
					<dim>60</dim>
				</port>
			</input>
			<output>
				<port id="1">
					<dim>1</dim>
					<dim>32</dim>
					<dim>60</dim>
					<dim>60</dim>
				</port>
			</output>
			<blobs>
				<biases offset="24" size="128" />
				<weights offset="152" size="3456" />
			</blobs>
		</layer>
		<layer name="103" type="ReLU" precision="FP32" id="3">
			<input>
				<port id="0">
					<dim>1</dim>
					<dim>32</dim>
					<dim>60</dim>
					<dim>60</dim>
				</port>
			</input>
			<output>
				<port id="1">
					<dim>1</dim>
					<dim>32</dim>
					<dim>60</dim>
					<dim>60</dim>
				</port>
			</output>
		</layer>
		<layer name="Mul1_1385/Fused_Mul_/FusedScaleShift_" type="ScaleShift" precision="FP32" id="4">
			<data broadcast="0" />
			<input>
				<port id="0">
					<dim>1</dim>
					<dim>32</dim>
					<dim>60</dim>
					<dim>60</dim>
				</port>
			</input>
			<output>
				<port id="1">
					<dim>1</dim>
					<dim>32</dim>
					<dim>60</dim>
					<dim>60</dim>
				</port>
			</output>
			<blobs>
				<biases offset="3608" size="128" />
				<weights offset="3736" size="128" />
			</blobs>
		</layer>
		<layer name="105" type="Convolution" precision="FP32" id="5">
			<data dilations="1,1" group="1" kernel="3,3" output="16" pads_begin="1,1" pads_end="1,1" quantization_level="I8" strides="2,2" />
			<input>
				<port id="0">
					<dim>1</dim>
					<dim>32</dim>
					<dim>60</dim>
					<dim>60</dim>
				</port>
			</input>
			<output>
				<port id="1">
					<dim>1</dim>
					<dim>16</dim>
					<dim>30</dim>
					<dim>30</dim>
				</port>
			</output>
			<blobs>
				<biases offset="3864" size="64" />
				<weights offset="3928" size="18432" />
			</blobs>
		</layer>
		<layer name="106" type="Convolution" precision="FP32" id="6">
			<data dilations="1,1" group="1" kernel="3,3" output="64" pads_begin="1,1" pads_end="1,1" quantization_level="I8" strides="1,1" />
			<input>
				<port id="0">
					<dim>1</dim>
					<dim>16</dim>
					<dim>30</dim>
					<dim>30</dim>
				</port>
			</input>
			<output>
				<port id="1">
					<dim>1</dim>
					<dim>64</dim>
					<dim>30</dim>
					<dim>30</dim>
				</port>
			</output>
			<blobs>
				<biases offset="22360" size="256" />
				<weights offset="22616" size="36864" />
			</blobs>
		</layer>
		<layer name="107" type="ReLU" precision="FP32" id="7">
			<input>
				<port id="0">
					<dim>1</dim>
					<dim>64</dim>
					<dim>30</dim>
					<dim>30</dim>
				</port>
			</input>
			<output>
				<port id="1">
					<dim>1</dim>
					<dim>64</dim>
					<dim>30</dim>
					<dim>30</dim>
				</port>
			</output>
		</layer>
		<layer name="Mul1_1358/Fused_Mul_/FusedScaleShift_" type="ScaleShift" precision="FP32" id="8">
			<data broadcast="0" />
			<input>
				<port id="0">
					<dim>1</dim>
					<dim>64</dim>
					<dim>30</dim>
					<dim>30</dim>
				</port>
			</input>
			<output>
				<port id="1">
					<dim>1</dim>
					<dim>64</dim>
					<dim>30</dim>
					<dim>30</dim>
				</port>
			</output>
			<blobs>
				<biases offset="59480" size="256" />
				<weights offset="59736" size="256" />
			</blobs>
		</layer>
		<layer name="109" type="Convolution" precision="FP32" id="9">
			<data dilations="1,1" group="1" kernel="3,3" output="32" pads_begin="1,1" pads_end="1,1" quantization_level="I8" strides="2,2" />
			<input>
				<port id="0">
					<dim>1</dim>
					<dim>64</dim>
					<dim>30</dim>
					<dim>30</dim>
				</port>
			</input>
			<output>
				<port id="1">
					<dim>1</dim>
					<dim>32</dim>
					<dim>15</dim>
					<dim>15</dim>
				</port>
			</output>
			<blobs>
				<biases offset="59992" size="128" />
				<weights offset="60120" size="73728" />
			</blobs>
		</layer>
		<layer name="left_eye_image" type="Input" precision="FP32" id="10">
			<output>
				<port id="0">
					<dim>1</dim>
					<dim>3</dim>
					<dim>60</dim>
					<dim>60</dim>
				</port>
			</output>
		</layer>
		<layer name="Mul1_1376/Fused_Mul_/FusedScaleShift_" type="ScaleShift" precision="FP32" id="11">
			<data broadcast="0" />
			<input>
				<port id="0">
					<dim>1</dim>
					<dim>3</dim>
					<dim>60</dim>
					<dim>60</dim>
				</port>
			</input>
			<output>
				<port id="1">
					<dim>1</dim>
					<dim>3</dim>
					<dim>60</dim>
					<dim>60</dim>
				</port>
			</output>
			<blobs>
				<biases offset="133848" size="12" />
				<weights offset="133860" size="12" />
			</blobs>
		</layer>
		<layer name="93" type="Convolution" precision="FP32" id="12">
			<data dilations="1,1" group="1" kernel="3,3" output="32" pads_begin="1,1" pads_end="1,1" quantization_level="I8" strides="1,1" />
			<input>
				<port id="0">
					<dim>1</dim>
					<dim>3</dim>
					<dim>60</dim>
					<dim>60</dim>
				</port>
			</input>
			<output>
				<port id="1">
					<dim>1</dim>
					<dim>32</dim>
					<dim>60</dim>
					<dim>60</dim>
				</port>
			</output>
			<blobs>
				<biases offset="133872" size="128" />
				<weights offset="134000" size="3456" />
			</blobs>
		</layer>
		<layer name="94" type="ReLU" precision="FP32" id="13">
			<input>
				<port id="0">
					<dim>1</dim>
					<dim>32</dim>
					<dim>60</dim>
					<dim>60</dim>
				</port>
			</input>
			<output>
				<port id="1">
					<dim>1</dim>
					<dim>32</dim>
					<dim>60</dim>
					<dim>60</dim>
				</port>
			</output>
		</layer>
		<layer name="Mul1_1403/Fused_Mul_/FusedScaleShift_" type="ScaleShift" precision="FP32" id="14">
			<data broadcast="0" />
			<input>
				<port id="0">
					<dim>1</dim>
					<dim>32</dim>
					<dim>60</dim>
					<dim>60</dim>
				</port>
			</input>
			<output>
				<port id="1">
					<dim>1</dim>
					<dim>32</dim>
					<dim>60</dim>
					<dim>60</dim>
				</port>
			</output>
			<blobs>
				<biases offset="137456" size="128" />
				<weights offset="137584" size="128" />
			</blobs>
		</layer>
		<layer name="96" type="Convolution" precision="FP32" id="15">
			<data dilations="1,1" group="1" kernel="3,3" output="16" pads_begin="1,1" pads_end="1,1" quantization_level="I8" strides="2,2" />
			<input>
				<port id="0">
					<dim>1</dim>
					<dim>32</dim>
					<dim>60</dim>
					<dim>60</dim>
				</port>
			</input>
			<output>
				<port id="1">
					<dim>1</dim>
					<dim>16</dim>
					<dim>30</dim>
					<dim>30</dim>
				</port>
			</output>
			<blobs>
				<biases offset="137712" size="64" />
				<weights offset="137776" size="18432" />
			</blobs>
		</layer>
		<layer name="97" type="Convolution" precision="FP32" id="16">
			<data dilations="1,1" group="1" kernel="3,3" output="64" pads_begin="1,1" pads_end="1,1" quantization_level="I8" strides="1,1" />
			<input>
				<port id="0">
					<dim>1</dim>
					<dim>16</dim>
					<dim>30</dim>
					<dim>30</dim>
				</port>
			</input>
			<output>
				<port id="1">
					<dim>1</dim>
					<dim>64</dim>
					<dim>30</dim>
					<dim>30</dim>
				</port>
			</output>
			<blobs>
				<biases offset="156208" size="256" />
				<weights offset="156464" size="36864" />
			</blobs>
		</layer>
		<layer name="98" type="ReLU" precision="FP32" id="17">
			<input>
				<port id="0">
					<dim>1</dim>
					<dim>64</dim>
					<dim>30</dim>
					<dim>30</dim>
				</port>
			</input>
			<output>
				<port id="1">
					<dim>1</dim>
					<dim>64</dim>
					<dim>30</dim>
					<dim>30</dim>
				</port>
			</output>
		</layer>
		<layer name="Mul1_1367/Fused_Mul_/FusedScaleShift_" type="ScaleShift" precision="FP32" id="18">
			<data broadcast="0" />
			<input>
				<port id="0">
					<dim>1</dim>
					<dim>64</dim>
					<dim>30</dim>
					<dim>30</dim>
				</port>
			</input>
			<output>
				<port id="1">
					<dim>1</dim>
					<dim>64</dim>
					<dim>30</dim>
					<dim>30</dim>
				</port>
			</output>
			<blobs>
				<biases offset="193328" size="256" />
				<weights offset="193584" size="256" />
			</blobs>
		</layer>
		<layer name="100" type="Convolution" precision="FP32" id="19">
			<data dilations="1,1" group="1" kernel="3,3" output="32" pads_begin="1,1" pads_end="1,1" quantization_level="I8" strides="2,2" />
			<input>
				<port id="0">
					<dim>1</dim>
					<dim>64</dim>
					<dim>30</dim>
					<dim>30</dim>
				</port>
			</input>
			<output>
				<port id="1">
					<dim>1</dim>
					<dim>32</dim>
					<dim>15</dim>
					<dim>15</dim>
				</port>
			</output>
			<blobs>
				<biases offset="193840" size="128" />
				<weights offset="193968" size="73728" />
			</blobs>
		</layer>
		<layer name="110" type="Concat" precision="FP32" id="20">
			<data axis="1" />
			<input>
				<port id="0">
					<dim>1</dim>
					<dim>32</dim>
					<dim>15</dim>
					<dim>15</dim>
				</port>
				<port id="1">
					<dim>1</dim>
					<dim>32</dim>
					<dim>15</dim>
					<dim>15</dim>
				</port>
			</input>
			<output>
				<port id="2">
					<dim>1</dim>
					<dim>64</dim>
					<dim>15</dim>
					<dim>15</dim>
				</port>
			</output>
		</layer>
		<layer name="111" type="Convolution" precision="FP32" id="21">
			<data dilations="1,1" group="1" kernel="3,3" output="128" pads_begin="1,1" pads_end="1,1" quantization_level="I8" strides="1,1" />
			<input>
				<port id="0">
					<dim>1</dim>
					<dim>64</dim>
					<dim>15</dim>
					<dim>15</dim>
				</port>
			</input>
			<output>
				<port id="1">
					<dim>1</dim>
					<dim>128</dim>
					<dim>15</dim>
					<dim>15</dim>
				</port>
			</output>
			<blobs>
				<biases offset="267696" size="512" />
				<weights offset="268208" size="294912" />
			</blobs>
		</layer>
		<layer name="112" type="ReLU" precision="FP32" id="22">
			<input>
				<port id="0">
					<dim>1</dim>
					<dim>128</dim>
					<dim>15</dim>
					<dim>15</dim>
				</port>
			</input>
			<output>
				<port id="1">
					<dim>1</dim>
					<dim>128</dim>
					<dim>15</dim>
					<dim>15</dim>
				</port>
			</output>
		</layer>
		<layer name="Mul1_1430/Fused_Mul_/FusedScaleShift_" type="ScaleShift" precision="FP32" id="23">
			<data broadcast="0" />
			<input>
				<port id="0">
					<dim>1</dim>
					<dim>128</dim>
					<dim>15</dim>
					<dim>15</dim>
				</port>
			</input>
			<output>
				<port id="1">
					<dim>1</dim>
					<dim>128</dim>
					<dim>15</dim>
					<dim>15</dim>
				</port>
			</output>
			<blobs>
				<biases offset="563120" size="512" />
				<weights offset="563632" size="512" />
			</blobs>
		</layer>
		<layer name="114" type="Convolution" precision="FP32" id="24">
			<data dilations="1,1" group="1" kernel="3,3" output="64" pads_begin="1,1" pads_end="1,1" quantization_level="I8" strides="2,2" />
			<input>
				<port id="0">
					<dim>1</dim>
					<dim>128</dim>
					<dim>15</dim>
					<dim>15</dim>
				</port>
			</input>
			<output>
				<port id="1">
					<dim>1</dim>
					<dim>64</dim>
					<dim>8</dim>
					<dim>8</dim>
				</port>
			</output>
			<blobs>
				<biases offset="564144" size="256" />
				<weights offset="564400" size="294912" />
			</blobs>
		</layer>
		<layer name="115" type="Convolution" precision="FP32" id="25">
			<data dilations="1,1" group="1" kernel="3,3" output="128" pads_begin="1,1" pads_end="1,1" quantization_level="I8" strides="1,1" />
			<input>
				<port id="0">
					<dim>1</dim>
					<dim>64</dim>
					<dim>8</dim>
					<dim>8</dim>
				</port>
			</input>
			<output>
				<port id="1">
					<dim>1</dim>
					<dim>128</dim>
					<dim>8</dim>
					<dim>8</dim>
				</port>
			</output>
			<blobs>
				<biases offset="859312" size="512" />
				<weights offset="859824" size="294912" />
			</blobs>
		</layer>
		<layer name="116" type="ReLU" precision="FP32" id="26">
			<input>
				<port id="0">
					<dim>1</dim>
					<dim>128</dim>
					<dim>8</dim>
					<dim>8</dim>
				</port>
			</input>
			<output>
				<port id="1">
					<dim>1</dim>
					<dim>128</dim>
					<dim>8</dim>
					<dim>8</dim>
				</port>
			</output>
		</layer>
		<layer name="Mul1_1439/Fused_Mul_/FusedScaleShift_" type="ScaleShift" precision="FP32" id="27">
			<data broadcast="0" />
			<input>
				<port id="0">
					<dim>1</dim>
					<dim>128</dim>
					<dim>8</dim>
					<dim>8</dim>
				</port>
			</input>
			<output>
				<port id="1">
					<dim>1</dim>
					<dim>128</dim>
					<dim>8</dim>
					<dim>8</dim>
				</port>
			</output>
			<blobs>
				<biases offset="1154736" size="512" />
				<weights offset="1155248" size="512" />
			</blobs>
		</layer>
		<layer name="118" type="Convolution" precision="FP32" id="28">
			<data dilations="1,1" group="1" kernel="3,3" output="64" pads_begin="0,0" pads_end="0,0" quantization_level="I8" strides="2,2" />
			<input>
				<port id="0">
					<dim>1</dim>
					<dim>128</dim>
					<dim>8</dim>
					<dim>8</dim>
				</port>
			</input>
			<output>
				<port id="1">
					<dim>1</dim>
					<dim>64</dim>
					<dim>3</dim>
					<dim>3</dim>
				</port>
			</output>
			<blobs>
				<biases offset="1155760" size="256" />
				<weights offset="1156016" size="294912" />
			</blobs>
		</layer>
		<layer name="119" type="Convolution" precision="FP32" id="29">
			<data dilations="1,1" group="1" kernel="3,3" output="256" pads_begin="1,1" pads_end="1,1" quantization_level="I8" strides="1,1" />
			<input>
				<port id="0">
					<dim>1</dim>
					<dim>64</dim>
					<dim>3</dim>
					<dim>3</dim>
				</port>
			</input>
			<output>
				<port id="1">
					<dim>1</dim>
					<dim>256</dim>
					<dim>3</dim>
					<dim>3</dim>
				</port>
			</output>
			<blobs>
				<biases offset="1450928" size="1024" />
				<weights offset="1451952" size="589824" />
			</blobs>
		</layer>
		<layer name="120" type="ReLU" precision="FP32" id="30">
			<input>
				<port id="0">
					<dim>1</dim>
					<dim>256</dim>
					<dim>3</dim>
					<dim>3</dim>
				</port>
			</input>
			<output>
				<port id="1">
					<dim>1</dim>
					<dim>256</dim>
					<dim>3</dim>
					<dim>3</dim>
				</port>
			</output>
		</layer>
		<layer name="Mul1_1412/Fused_Mul_/FusedScaleShift_" type="ScaleShift" precision="FP32" id="31">
			<data broadcast="0" />
			<input>
				<port id="0">
					<dim>1</dim>
					<dim>256</dim>
					<dim>3</dim>
					<dim>3</dim>
				</port>
			</input>
			<output>
				<port id="1">
					<dim>1</dim>
					<dim>256</dim>
					<dim>3</dim>
					<dim>3</dim>
				</port>
			</output>
			<blobs>
				<biases offset="2041776" size="1024" />
				<weights offset="2042800" size="1024" />
			</blobs>
		</layer>
		<layer name="122" type="Convolution" precision="FP32" id="32">
			<data dilations="1,1" group="1" kernel="3,3" output="512" pads_begin="0,0" pads_end="0,0" quantization_level="I8" strides="1,1" />
			<input>
				<port id="0">
					<dim>1</dim>
					<dim>256</dim>
					<dim>3</dim>
					<dim>3</dim>
				</port>
			</input>
			<output>
				<port id="1">
					<dim>1</dim>
					<dim>512</dim>
					<dim>1</dim>
					<dim>1</dim>
				</port>
			</output>
			<blobs>
				<biases offset="2043824" size="2048" />
				<weights offset="2045872" size="4718592" />
			</blobs>
		</layer>
		<layer name="head_pose_angles" type="Input" precision="FP32" id="33">
			<output>
				<port id="0">
					<dim>1</dim>
					<dim>3</dim>
				</port>
			</output>
		</layer>
		<layer name="gaze_vector/DimData_const" type="Const" precision="FP32" id="34">
			<output>
				<port id="0">
					<dim>2</dim>
				</port>
			</output>
			<blobs>
				<custom offset="6764464" size="8" />
			</blobs>
		</layer>
		<layer name="141/DimData_const" type="Const" precision="FP32" id="35">
			<output>
				<port id="0">
					<dim>4</dim>
				</port>
			</output>
			<blobs>
				<custom offset="6764472" size="16" />
			</blobs>
		</layer>
		<layer name="137/Output_0/Data__const" type="Const" precision="FP32" id="36">
			<output>
				<port id="0">
					<dim>2</dim>
				</port>
			</output>
			<blobs>
				<custom offset="6764488" size="8" />
			</blobs>
		</layer>
		<layer name="138" type="Reshape" precision="FP32" id="37">
			<data dim="" />
			<input>
				<port id="0">
					<dim>1</dim>
					<dim>3</dim>
				</port>
				<port id="1">
					<dim>2</dim>
				</port>
			</input>
			<output>
				<port id="2">
					<dim>1</dim>
					<dim>3</dim>
				</port>
			</output>
		</layer>
		<layer name="129/Output_0/Data__const" type="Const" precision="FP32" id="38">
			<output>
				<port id="0">
					<dim>2</dim>
				</port>
			</output>
			<blobs>
				<custom offset="6764496" size="8" />
			</blobs>
		</layer>
		<layer name="130" type="Reshape" precision="FP32" id="39">
			<data dim="" />
			<input>
				<port id="0">
					<dim>1</dim>
					<dim>512</dim>
					<dim>1</dim>
					<dim>1</dim>
				</port>
				<port id="1">
					<dim>2</dim>
				</port>
			</input>
			<output>
				<port id="2">
					<dim>1</dim>
					<dim>512</dim>
				</port>
			</output>
		</layer>
		<layer name="139" type="Concat" precision="FP32" id="40">
			<data axis="1" />
			<input>
				<port id="0">
					<dim>1</dim>
					<dim>512</dim>
				</port>
				<port id="1">
					<dim>1</dim>
					<dim>3</dim>
				</port>
			</input>
			<output>
				<port id="2">
					<dim>1</dim>
					<dim>515</dim>
				</port>
			</output>
		</layer>
		<layer name="141" type="Reshape" precision="FP32" id="41">
			<data dim="" />
			<input>
				<port id="0">
					<dim>1</dim>
					<dim>515</dim>
				</port>
				<port id="1">
					<dim>4</dim>
				</port>
			</input>
			<output>
				<port id="2">
					<dim>1</dim>
					<dim>515</dim>
					<dim>1</dim>
					<dim>1</dim>
				</port>
			</output>
		</layer>
		<layer name="142" type="Convolution" precision="FP32" id="42">
			<data dilations="1,1" group="1" kernel="1,1" output="320" pads_begin="0,0" pads_end="0,0" quantization_level="I8" strides="1,1" />
			<input>
				<port id="0">
					<dim>1</dim>
					<dim>515</dim>
					<dim>1</dim>
					<dim>1</dim>
				</port>
			</input>
			<output>
				<port id="1">
					<dim>1</dim>
					<dim>320</dim>
					<dim>1</dim>
					<dim>1</dim>
				</port>
			</output>
			<blobs>
				<biases offset="6764504" size="1280" />
				<weights offset="6765784" size="659200" />
			</blobs>
		</layer>
		<layer name="144" type="ReLU" precision="FP32" id="43">
			<input>
				<port id="0">
					<dim>1</dim>
					<dim>320</dim>
					<dim>1</dim>
					<dim>1</dim>
				</port>
			</input>
			<output>
				<port id="1">
					<dim>1</dim>
					<dim>320</dim>
					<dim>1</dim>
					<dim>1</dim>
				</port>
			</output>
		</layer>
		<layer name="145" type="Convolution" precision="FP32" id="44">
			<data dilations="1,1" group="1" kernel="1,1" output="80" pads_begin="0,0" pads_end="0,0" quantization_level="I8" strides="1,1" />
			<input>
				<port id="0">
					<dim>1</dim>
					<dim>320</dim>
					<dim>1</dim>
					<dim>1</dim>
				</port>
			</input>
			<output>
				<port id="1">
					<dim>1</dim>
					<dim>80</dim>
					<dim>1</dim>
					<dim>1</dim>
				</port>
			</output>
			<blobs>
				<biases offset="7424984" size="320" />
				<weights offset="7425304" size="102400" />
			</blobs>
		</layer>
		<layer name="146" type="ReLU" precision="FP32" id="45">
			<input>
				<port id="0">
					<dim>1</dim>
					<dim>80</dim>
					<dim>1</dim>
					<dim>1</dim>
				</port>
			</input>
			<output>
				<port id="1">
					<dim>1</dim>
					<dim>80</dim>
					<dim>1</dim>
					<dim>1</dim>
				</port>
			</output>
		</layer>
		<layer name="Mul1_1394/Fused_Mul_/FusedScaleShift_" type="ScaleShift" precision="FP32" id="46">
			<data broadcast="0" />
			<input>
				<port id="0">
					<dim>1</dim>
					<dim>80</dim>
					<dim>1</dim>
					<dim>1</dim>
				</port>
			</input>
			<output>
				<port id="1">
					<dim>1</dim>
					<dim>80</dim>
					<dim>1</dim>
					<dim>1</dim>
				</port>
			</output>
			<blobs>
				<biases offset="7527704" size="320" />
				<weights offset="7528024" size="320" />
			</blobs>
		</layer>
		<layer name="148" type="Convolution" precision="FP32" id="47">
			<data dilations="1,1" group="1" kernel="1,1" output="3" pads_begin="0,0" pads_end="0,0" quantization_level="I8" strides="1,1" />
			<input>
				<port id="0">
					<dim>1</dim>
					<dim>80</dim>
					<dim>1</dim>
					<dim>1</dim>
				</port>
			</input>
			<output>
				<port id="1">
					<dim>1</dim>
					<dim>3</dim>
					<dim>1</dim>
					<dim>1</dim>
				</port>
			</output>
			<blobs>
				<biases offset="7528344" size="12" />
				<weights offset="7528356" size="960" />
			</blobs>
		</layer>
		<layer name="gaze_vector" type="Reshape" precision="FP32" id="48">
			<data dim="" />
			<input>
				<port id="0">
					<dim>1</dim>
					<dim>3</dim>
					<dim>1</dim>
					<dim>1</dim>
				</port>
				<port id="1">
					<dim>2</dim>
				</port>
			</input>
			<output>
				<port id="2">
					<dim>1</dim>
					<dim>3</dim>
				</port>
			</output>
		</layer>
	</layers>
	<edges>
		<edge from-layer="0" from-port="0" to-layer="1" to-port="0" />
		<edge from-layer="1" from-port="1" to-layer="2" to-port="0" />
		<edge from-layer="2" from-port="1" to-layer="3" to-port="0" />
		<edge from-layer="3" from-port="1" to-layer="4" to-port="0" />
		<edge from-layer="4" from-port="1" to-layer="5" to-port="0" />
		<edge from-layer="5" from-port="1" to-layer="6" to-port="0" />
		<edge from-layer="6" from-port="1" to-layer="7" to-port="0" />
		<edge from-layer="7" from-port="1" to-layer="8" to-port="0" />
		<edge from-layer="8" from-port="1" to-layer="9" to-port="0" />
		<edge from-layer="9" from-port="1" to-layer="20" to-port="1" />
		<edge from-layer="10" from-port="0" to-layer="11" to-port="0" />
		<edge from-layer="11" from-port="1" to-layer="12" to-port="0" />
		<edge from-layer="12" from-port="1" to-layer="13" to-port="0" />
		<edge from-layer="13" from-port="1" to-layer="14" to-port="0" />
		<edge from-layer="14" from-port="1" to-layer="15" to-port="0" />
		<edge from-layer="15" from-port="1" to-layer="16" to-port="0" />
		<edge from-layer="16" from-port="1" to-layer="17" to-port="0" />
		<edge from-layer="17" from-port="1" to-layer="18" to-port="0" />
		<edge from-layer="18" from-port="1" to-layer="19" to-port="0" />
		<edge from-layer="19" from-port="1" to-layer="20" to-port="0" />
		<edge from-layer="20" from-port="2" to-layer="21" to-port="0" />
		<edge from-layer="21" from-port="1" to-layer="22" to-port="0" />
		<edge from-layer="22" from-port="1" to-layer="23" to-port="0" />
		<edge from-layer="23" from-port="1" to-layer="24" to-port="0" />
		<edge from-layer="24" from-port="1" to-layer="25" to-port="0" />
		<edge from-layer="25" from-port="1" to-layer="26" to-port="0" />
		<edge from-layer="26" from-port="1" to-layer="27" to-port="0" />
		<edge from-layer="27" from-port="1" to-layer="28" to-port="0" />
		<edge from-layer="28" from-port="1" to-layer="29" to-port="0" />
		<edge from-layer="29" from-port="1" to-layer="30" to-port="0" />
		<edge from-layer="30" from-port="1" to-layer="31" to-port="0" />
		<edge from-layer="31" from-port="1" to-layer="32" to-port="0" />
		<edge from-layer="32" from-port="1" to-layer="39" to-port="0" />
		<edge from-layer="33" from-port="0" to-layer="37" to-port="0" />
		<edge from-layer="34" from-port="0" to-layer="48" to-port="1" />
		<edge from-layer="35" from-port="0" to-layer="41" to-port="1" />
		<edge from-layer="36" from-port="0" to-layer="37" to-port="1" />
		<edge from-layer="37" from-port="2" to-layer="40" to-port="1" />
		<edge from-layer="38" from-port="0" to-layer="39" to-port="1" />
		<edge from-layer="39" from-port="2" to-layer="40" to-port="0" />
		<edge from-layer="40" from-port="2" to-layer="41" to-port="0" />
		<edge from-layer="41" from-port="2" to-layer="42" to-port="0" />
		<edge from-layer="42" from-port="1" to-layer="43" to-port="0" />
		<edge from-layer="43" from-port="1" to-layer="44" to-port="0" />
		<edge from-layer="44" from-port="1" to-layer="45" to-port="0" />
		<edge from-layer="45" from-port="1" to-layer="46" to-port="0" />
		<edge from-layer="46" from-port="1" to-layer="47" to-port="0" />
		<edge from-layer="47" from-port="1" to-layer="48" to-port="0" />
	</edges>
	<statistics>
		<layer>
			<name>100</name>
			<min>… -2.624114</min>
			<max>… 4.252252</max>
		</layer>
		<layer>
			<name>102</name>
			<min>… -1.313155</min>
			<max>… 1.181237</max>
		</layer>
		<layer>
			<name>103</name>
			<min>… -0.000000</min>
			<max>… 1.181237</max>
		</layer>
		<layer>
			<name>105</name>
			<min>-4.464659, -3.552472, -2.220114, -9.788163, -4.612533, -13.132295, -6.976190, -3.597963, -4.002155, -5.639457, -2.942210, -2.567236, -3.242719, -2.395953, -2.379302, -0.579881</min>
			<max>6.061908, 1.397980, 10.032749, 3.156786, 6.548258, 5.164880, 2.899423, 4.884625, 4.826621, 8.386342, 3.614610, 6.039413, 5.271983, 3.541585, 5.804366, 9.016329</max>
		</layer>
		<layer>
			<name>106</name>
			<min>… -8.799252</min>
			<max>… 4.251951</max>
		</layer>
		<layer>
			<name>107</name>
			<min>… -0.000000</min>
			<max>… 4.251951</max>
		</layer>
		<layer>
			<name>109</name>
			<min>… -6.226983</min>
			<max>… 5.222551</max>
		</layer>
		<layer>
			<name>110</name>
			<min>… -6.226983</min>
			<max>… 5.222551</max>
		</layer>
		<layer>
			<name>111</name>
			<min>… -23.422764</min>
			<max>… 22.134676</max>
		</layer>
		<layer>
			<name>112</name>
			<min>… -0.000000</min>
			<max>… 22.134676</max>
		</layer>
		<layer>
			<name>114</name>
			<min>… -12.687116</min>
			<max>… 7.157825</max>
		</layer>
		<layer>
			<name>115</name>
			<min>… -20.102795</min>
			<max>… 13.499168</max>
		</layer>
		<layer>
			<name>116</name>
			<min>… -0.000000</min>
			<max>… 13.499168</max>
		</layer>
		<layer>
			<name>118</name>
			<min>… -8.729753</min>
			<max>… 3.319787</max>
		</layer>
		<layer>
			<name>119</name>
			<min>… -16.472494</min>
			<max>… 17.323536</max>
		</layer>
		<layer>
			<name>120</name>
			<min>… -0.000000</min>
			<max>… 17.323536</max>
		</layer>
		<layer>
			<name>122</name>
			<min>… -0.682520</min>
			<max>… 0.739819</max>
		</layer>
		<layer>
			<name>130</name>
			<min>… -0.682520</min>
			<max>… 0.739819</max>
		</layer>
		<layer>
			<name>138</name>
			<min>-17.834379, -9.371304, -3.438965</min>
			<max>16.974428, 6.274634, 3.215247</max>
		</layer>
		<layer>
			<name>139</name>
			<min>… -3.438965</min>
			<max>… 3.215247</max>
		</layer>
		<layer>
			<name>141</name>
			<min>… -3.438965</min>
			<max>… 3.215247</max>
		</layer>
		<layer>
			<name>142</name>
			<min>… -2.133376</min>
			<max>… 0.890073</max>
		</layer>
		<layer>
			<name>144</name>
			<min>… -0.000000</min>
			<max>… 0.890073</max>
		</layer>
		<layer>
			<name>145</name>
			<min>… -1.753347</min>
			<max>… 2.998858</max>
		</layer>
		<layer>
			<name>146</name>
			<min>… -0.000000</min>
			<max>… 2.998858</max>
		</layer>
		<layer>
			<name>148</name>
			<min>-0.721286, -0.359855, -0.974286</min>
			<max>0.669772, 0.371308, -0.511366</max>
		</layer>
		<layer>
			<name>93</name>
			<min>… -1.611457</min>
			<max>… 1.413353</max>
		</layer>
		<layer>
			<name>94</name>
			<min>… -0.000000</min>
			<max>… 1.413353</max>
		</layer>
		<layer>
			<name>96</name>
			<min>-8.694924, -2.380931, -5.767381, -4.590325, -3.486827, -1.176950, -7.476404, -6.483747, -5.891845, -12.631216, -3.456441, -6.399675, -1.490063, -4.850297, -2.738569, -4.641816</min>
			<max>1.865285, 3.576879, 3.505779, 7.765351, 3.427665, 6.743711, 0.607802, 9.052082, 1.106314, 4.839793, 3.656320, 1.143369, 10.721347, 5.944081, 5.260802, 4.720399</max>
		</layer>
		<layer>
			<name>97</name>
			<min>… -4.057945</min>
			<max>… 3.379434</max>
		</layer>
		<layer>
			<name>98</name>
			<min>… -0.000000</min>
			<max>… 3.379434</max>
		</layer>
		<layer>
			<name>Mul1_1358/Fused_Mul_/FusedScaleShift_</name>
			<min>… 0.009768</min>
			<max>… 6.295956</max>
		</layer>
		<layer>
			<name>Mul1_1367/Fused_Mul_/FusedScaleShift_</name>
			<min>… -0.054285</min>
			<max>… 0.623905</max>
		</layer>
		<layer>
			<name>Mul1_1376/Fused_Mul_/FusedScaleShift_</name>
			<min>-0.555411, -1.316109, -1.492219</min>
			<max>1.260498, 2.812319, 2.198137</max>
		</layer>
		<layer>
			<name>Mul1_1385/Fused_Mul_/FusedScaleShift_</name>
			<min>… -0.111241</min>
			<max>… 2.228275</max>
		</layer>
		<layer>
			<name>Mul1_1394/Fused_Mul_/FusedScaleShift_</name>
			<min>… -0.789938</min>
			<max>… 1.175271</max>
		</layer>
		<layer>
			<name>Mul1_1403/Fused_Mul_/FusedScaleShift_</name>
			<min>… 0.103102</min>
			<max>… 1.990380</max>
		</layer>
		<layer>
			<name>Mul1_1412/Fused_Mul_/FusedScaleShift_</name>
			<min>… -0.363562</min>
			<max>… 4.606389</max>
		</layer>
		<layer>
			<name>Mul1_1421/Fused_Mul_/FusedScaleShift_</name>
			<min>-0.576694, -0.553123, -0.778137</min>
			<max>1.646992, 1.352279, 1.455054</max>
		</layer>
		<layer>
			<name>Mul1_1430/Fused_Mul_/FusedScaleShift_</name>
			<min>… 0.017687</min>
			<max>… 1.422244</max>
		</layer>
		<layer>
			<name>Mul1_1439/Fused_Mul_/FusedScaleShift_</name>
			<min>… -0.375019</min>
			<max>… 2.976004</max>
		</layer>
		<layer>
			<name>gaze_vector</name>
			<min>-0.721286, -0.359855, -0.974286</min>
			<max>0.669772, 0.371308, -0.511366</max>
		</layer>
		<layer>
			<name>head_pose_angles</name>
			<min>-17.834379, -9.371304, -3.438965</min>
			<max>16.974428, 6.274634, 3.215247</max>
		</layer>
		<layer>
			<name>left_eye_image</name>
			<min>0.000000, 0.000000, 0.000000</min>
			<max>251.000000, 253.000000, 255.000000</max>
		</layer>
		<layer>
			<name>right_eye_image</name>
			<min>0.000000, 0.000000, 0.000000</min>
			<max>252.000000, 255.000000, 255.000000</max>
		</layer>
	</statistics>
</net>
