<?xml version="1.0"?>
<net name="head-pose-estimation-adas-0001" version="3" batch="1">
	<layers>
		<layer name="data" type="Input" precision="FP32" id="0">
			<output>
				<port id="0">
					<dim>1</dim>
					<dim>3</dim>
					<dim>60</dim>
					<dim>60</dim>
				</port>
			</output>
		</layer>
		<layer name="Mul_/Fused_Mul_/FusedScaleShift_" type="ScaleShift" precision="FP32" id="1">
			<data broadcast="0" />
			<input>
				<port id="0">
					<dim>1</dim>
					<dim>3</dim>
					<dim>60</dim>
					<dim>60</dim>
				</port>
			</input>
			<output>
				<port id="1">
					<dim>1</dim>
					<dim>3</dim>
					<dim>60</dim>
					<dim>60</dim>
				</port>
			</output>
			<blobs>
				<biases offset="0" size="12" />
				<weights offset="12" size="12" />
			</blobs>
		</layer>
		<layer name="conv1" type="Convolution" precision="FP32" id="2">
			<data dilations="1,1" group="1" kernel="3,3" output="32" pads_begin="1,1" pads_end="1,1" quantization_level="I8" strides="1,1" />
			<input>
				<port id="0">
					<dim>1</dim>
					<dim>3</dim>
					<dim>60</dim>
					<dim>60</dim>
				</port>
			</input>
			<output>
				<port id="1">
					<dim>1</dim>
					<dim>32</dim>
					<dim>60</dim>
					<dim>60</dim>
				</port>
			</output>
			<blobs>
				<biases offset="24" size="128" />
				<weights offset="152" size="3456" />
			</blobs>
		</layer>
		<layer name="relu_conv1" type="ReLU" precision="FP32" id="3">
			<data negative_slope="0.0" />
			<input>
				<port id="0">
					<dim>1</dim>
					<dim>32</dim>
					<dim>60</dim>
					<dim>60</dim>
				</port>
			</input>
			<output>
				<port id="1">
					<dim>1</dim>
					<dim>32</dim>
					<dim>60</dim>
					<dim>60</dim>
				</port>
			</output>
		</layer>
		<layer name="Mul_840/FusedScaleShift_" type="ScaleShift" precision="FP32" id="4">
			<data broadcast="0" />
			<input>
				<port id="0">
					<dim>1</dim>
					<dim>32</dim>
					<dim>60</dim>
					<dim>60</dim>
				</port>
			</input>
			<output>
				<port id="1">
					<dim>1</dim>
					<dim>32</dim>
					<dim>60</dim>
					<dim>60</dim>
				</port>
			</output>
			<blobs>
				<biases offset="3608" size="128" />
				<weights offset="3736" size="128" />
			</blobs>
		</layer>
		<layer name="pool1" type="Convolution" precision="FP32" id="5">
			<data dilations="1,1" group="1" kernel="3,3" output="16" pads_begin="1,1" pads_end="1,1" quantization_level="I8" strides="2,2" />
			<input>
				<port id="0">
					<dim>1</dim>
					<dim>32</dim>
					<dim>60</dim>
					<dim>60</dim>
				</port>
			</input>
			<output>
				<port id="1">
					<dim>1</dim>
					<dim>16</dim>
					<dim>30</dim>
					<dim>30</dim>
				</port>
			</output>
			<blobs>
				<biases offset="3864" size="64" />
				<weights offset="3928" size="18432" />
			</blobs>
		</layer>
		<layer name="conv2" type="Convolution" precision="FP32" id="6">
			<data dilations="1,1" group="1" kernel="3,3" output="64" pads_begin="1,1" pads_end="1,1" quantization_level="I8" strides="1,1" />
			<input>
				<port id="0">
					<dim>1</dim>
					<dim>16</dim>
					<dim>30</dim>
					<dim>30</dim>
				</port>
			</input>
			<output>
				<port id="1">
					<dim>1</dim>
					<dim>64</dim>
					<dim>30</dim>
					<dim>30</dim>
				</port>
			</output>
			<blobs>
				<biases offset="22360" size="256" />
				<weights offset="22616" size="36864" />
			</blobs>
		</layer>
		<layer name="relu_conv2" type="ReLU" precision="FP32" id="7">
			<data negative_slope="0.0" />
			<input>
				<port id="0">
					<dim>1</dim>
					<dim>64</dim>
					<dim>30</dim>
					<dim>30</dim>
				</port>
			</input>
			<output>
				<port id="1">
					<dim>1</dim>
					<dim>64</dim>
					<dim>30</dim>
					<dim>30</dim>
				</port>
			</output>
		</layer>
		<layer name="Mul_864/FusedScaleShift_" type="ScaleShift" precision="FP32" id="8">
			<data broadcast="0" />
			<input>
				<port id="0">
					<dim>1</dim>
					<dim>64</dim>
					<dim>30</dim>
					<dim>30</dim>
				</port>
			</input>
			<output>
				<port id="1">
					<dim>1</dim>
					<dim>64</dim>
					<dim>30</dim>
					<dim>30</dim>
				</port>
			</output>
			<blobs>
				<biases offset="59480" size="256" />
				<weights offset="59736" size="256" />
			</blobs>
		</layer>
		<layer name="pool2" type="Pooling" precision="FP32" id="9">
			<data exclude-pad="true" kernel="3,3" pads_begin="0,0" pads_end="0,0" pool-method="max" rounding_type="ceil" strides="2,2" />
			<input>
				<port id="0">
					<dim>1</dim>
					<dim>64</dim>
					<dim>30</dim>
					<dim>30</dim>
				</port>
			</input>
			<output>
				<port id="1">
					<dim>1</dim>
					<dim>64</dim>
					<dim>15</dim>
					<dim>15</dim>
				</port>
			</output>
		</layer>
		<layer name="conv3" type="Convolution" precision="FP32" id="10">
			<data dilations="1,1" group="1" kernel="3,3" output="128" pads_begin="1,1" pads_end="1,1" quantization_level="I8" strides="1,1" />
			<input>
				<port id="0">
					<dim>1</dim>
					<dim>64</dim>
					<dim>15</dim>
					<dim>15</dim>
				</port>
			</input>
			<output>
				<port id="1">
					<dim>1</dim>
					<dim>128</dim>
					<dim>15</dim>
					<dim>15</dim>
				</port>
			</output>
			<blobs>
				<biases offset="59992" size="512" />
				<weights offset="60504" size="294912" />
			</blobs>
		</layer>
		<layer name="relu_conv3" type="ReLU" precision="FP32" id="11">
			<data negative_slope="0.0" />
			<input>
				<port id="0">
					<dim>1</dim>
					<dim>128</dim>
					<dim>15</dim>
					<dim>15</dim>
				</port>
			</input>
			<output>
				<port id="1">
					<dim>1</dim>
					<dim>128</dim>
					<dim>15</dim>
					<dim>15</dim>
				</port>
			</output>
		</layer>
		<layer name="Mul_843/FusedScaleShift_" type="ScaleShift" precision="FP32" id="12">
			<data broadcast="0" />
			<input>
				<port id="0">
					<dim>1</dim>
					<dim>128</dim>
					<dim>15</dim>
					<dim>15</dim>
				</port>
			</input>
			<output>
				<port id="1">
					<dim>1</dim>
					<dim>128</dim>
					<dim>15</dim>
					<dim>15</dim>
				</port>
			</output>
			<blobs>
				<biases offset="355416" size="512" />
				<weights offset="355928" size="512" />
			</blobs>
		</layer>
		<layer name="pool3" type="Convolution" precision="FP32" id="13">
			<data dilations="1,1" group="1" kernel="3,3" output="64" pads_begin="1,1" pads_end="1,1" quantization_level="I8" strides="2,2" />
			<input>
				<port id="0">
					<dim>1</dim>
					<dim>128</dim>
					<dim>15</dim>
					<dim>15</dim>
				</port>
			</input>
			<output>
				<port id="1">
					<dim>1</dim>
					<dim>64</dim>
					<dim>8</dim>
					<dim>8</dim>
				</port>
			</output>
			<blobs>
				<biases offset="356440" size="256" />
				<weights offset="356696" size="294912" />
			</blobs>
		</layer>
		<layer name="conv4" type="Convolution" precision="FP32" id="14">
			<data dilations="1,1" group="1" kernel="3,3" output="128" pads_begin="1,1" pads_end="1,1" quantization_level="I8" strides="1,1" />
			<input>
				<port id="0">
					<dim>1</dim>
					<dim>64</dim>
					<dim>8</dim>
					<dim>8</dim>
				</port>
			</input>
			<output>
				<port id="1">
					<dim>1</dim>
					<dim>128</dim>
					<dim>8</dim>
					<dim>8</dim>
				</port>
			</output>
			<blobs>
				<biases offset="651608" size="512" />
				<weights offset="652120" size="294912" />
			</blobs>
		</layer>
		<layer name="relu_conv4" type="ReLU" precision="FP32" id="15">
			<data negative_slope="0.0" />
			<input>
				<port id="0">
					<dim>1</dim>
					<dim>128</dim>
					<dim>8</dim>
					<dim>8</dim>
				</port>
			</input>
			<output>
				<port id="1">
					<dim>1</dim>
					<dim>128</dim>
					<dim>8</dim>
					<dim>8</dim>
				</port>
			</output>
		</layer>
		<layer name="Mul_852/FusedScaleShift_" type="ScaleShift" precision="FP32" id="16">
			<data broadcast="0" />
			<input>
				<port id="0">
					<dim>1</dim>
					<dim>128</dim>
					<dim>8</dim>
					<dim>8</dim>
				</port>
			</input>
			<output>
				<port id="1">
					<dim>1</dim>
					<dim>128</dim>
					<dim>8</dim>
					<dim>8</dim>
				</port>
			</output>
			<blobs>
				<biases offset="947032" size="512" />
				<weights offset="947544" size="512" />
			</blobs>
		</layer>
		<layer name="pool4" type="Pooling" precision="FP32" id="17">
			<data exclude-pad="true" kernel="3,3" pads_begin="0,0" pads_end="0,0" pool-method="max" rounding_type="ceil" strides="2,2" />
			<input>
				<port id="0">
					<dim>1</dim>
					<dim>128</dim>
					<dim>8</dim>
					<dim>8</dim>
				</port>
			</input>
			<output>
				<port id="1">
					<dim>1</dim>
					<dim>128</dim>
					<dim>4</dim>
					<dim>4</dim>
				</port>
			</output>
		</layer>
		<layer name="conv5" type="Convolution" precision="FP32" id="18">
			<data dilations="1,1" group="1" kernel="3,3" output="256" pads_begin="1,1" pads_end="1,1" quantization_level="I8" strides="1,1" />
			<input>
				<port id="0">
					<dim>1</dim>
					<dim>128</dim>
					<dim>4</dim>
					<dim>4</dim>
				</port>
			</input>
			<output>
				<port id="1">
					<dim>1</dim>
					<dim>256</dim>
					<dim>4</dim>
					<dim>4</dim>
				</port>
			</output>
			<blobs>
				<biases offset="948056" size="1024" />
				<weights offset="949080" size="1179648" />
			</blobs>
		</layer>
		<layer name="relu_conv5" type="ReLU" precision="FP32" id="19">
			<data negative_slope="0.0" />
			<input>
				<port id="0">
					<dim>1</dim>
					<dim>256</dim>
					<dim>4</dim>
					<dim>4</dim>
				</port>
			</input>
			<output>
				<port id="1">
					<dim>1</dim>
					<dim>256</dim>
					<dim>4</dim>
					<dim>4</dim>
				</port>
			</output>
		</layer>
		<layer name="Mul_858/FusedScaleShift_" type="ScaleShift" precision="FP32" id="20">
			<data broadcast="0" />
			<input>
				<port id="0">
					<dim>1</dim>
					<dim>256</dim>
					<dim>4</dim>
					<dim>4</dim>
				</port>
			</input>
			<output>
				<port id="1">
					<dim>1</dim>
					<dim>256</dim>
					<dim>4</dim>
					<dim>4</dim>
				</port>
			</output>
			<blobs>
				<biases offset="2128728" size="1024" />
				<weights offset="2129752" size="1024" />
			</blobs>
		</layer>
		<layer name="conv_fm" type="Convolution" precision="FP32" id="21">
			<data dilations="1,1" group="1" kernel="3,3" output="512" pads_begin="0,0" pads_end="0,0" quantization_level="I8" strides="1,1" />
			<input>
				<port id="0">
					<dim>1</dim>
					<dim>256</dim>
					<dim>4</dim>
					<dim>4</dim>
				</port>
			</input>
			<output>
				<port id="1">
					<dim>1</dim>
					<dim>512</dim>
					<dim>2</dim>
					<dim>2</dim>
				</port>
			</output>
			<blobs>
				<biases offset="2130776" size="2048" />
				<weights offset="2132824" size="4718592" />
			</blobs>
		</layer>
		<layer name="angle_y" type="Convolution" precision="FP32" id="22">
			<data dilations="1,1" group="1" kernel="1,1" output="128" pads_begin="0,0" pads_end="0,0" quantization_level="I8" strides="1,1" />
			<input>
				<port id="0">
					<dim>1</dim>
					<dim>512</dim>
					<dim>2</dim>
					<dim>2</dim>
				</port>
			</input>
			<output>
				<port id="1">
					<dim>1</dim>
					<dim>128</dim>
					<dim>2</dim>
					<dim>2</dim>
				</port>
			</output>
			<blobs>
				<biases offset="6851416" size="512" />
				<weights offset="6851928" size="262144" />
			</blobs>
		</layer>
		<layer name="relu_y_1" type="ReLU" precision="FP32" id="23">
			<data negative_slope="0.0" />
			<input>
				<port id="0">
					<dim>1</dim>
					<dim>128</dim>
					<dim>2</dim>
					<dim>2</dim>
				</port>
			</input>
			<output>
				<port id="1">
					<dim>1</dim>
					<dim>128</dim>
					<dim>2</dim>
					<dim>2</dim>
				</port>
			</output>
		</layer>
		<layer name="angle_y_fc" type="FullyConnected" precision="FP32" id="24">
			<data out-size="1" quantization_level="FP32" />
			<input>
				<port id="0">
					<dim>1</dim>
					<dim>128</dim>
					<dim>2</dim>
					<dim>2</dim>
				</port>
			</input>
			<output>
				<port id="1">
					<dim>1</dim>
					<dim>1</dim>
				</port>
			</output>
			<blobs>
				<biases offset="7114072" size="4" />
				<weights offset="7114076" size="2048" />
			</blobs>
		</layer>
		<layer name="angle_r" type="Convolution" precision="FP32" id="25">
			<data dilations="1,1" group="1" kernel="1,1" output="128" pads_begin="0,0" pads_end="0,0" quantization_level="I8" strides="1,1" />
			<input>
				<port id="0">
					<dim>1</dim>
					<dim>512</dim>
					<dim>2</dim>
					<dim>2</dim>
				</port>
			</input>
			<output>
				<port id="1">
					<dim>1</dim>
					<dim>128</dim>
					<dim>2</dim>
					<dim>2</dim>
				</port>
			</output>
			<blobs>
				<biases offset="7116124" size="512" />
				<weights offset="7116636" size="262144" />
			</blobs>
		</layer>
		<layer name="relu_r_1" type="ReLU" precision="FP32" id="26">
			<data negative_slope="0.0" />
			<input>
				<port id="0">
					<dim>1</dim>
					<dim>128</dim>
					<dim>2</dim>
					<dim>2</dim>
				</port>
			</input>
			<output>
				<port id="1">
					<dim>1</dim>
					<dim>128</dim>
					<dim>2</dim>
					<dim>2</dim>
				</port>
			</output>
		</layer>
		<layer name="angle_r_fc" type="FullyConnected" precision="FP32" id="27">
			<data out-size="1" quantization_level="FP32" />
			<input>
				<port id="0">
					<dim>1</dim>
					<dim>128</dim>
					<dim>2</dim>
					<dim>2</dim>
				</port>
			</input>
			<output>
				<port id="1">
					<dim>1</dim>
					<dim>1</dim>
				</port>
			</output>
			<blobs>
				<biases offset="7378780" size="4" />
				<weights offset="7378784" size="2048" />
			</blobs>
		</layer>
		<layer name="angle_p" type="Convolution" precision="FP32" id="28">
			<data dilations="1,1" group="1" kernel="1,1" output="128" pads_begin="0,0" pads_end="0,0" quantization_level="I8" strides="1,1" />
			<input>
				<port id="0">
					<dim>1</dim>
					<dim>512</dim>
					<dim>2</dim>
					<dim>2</dim>
				</port>
			</input>
			<output>
				<port id="1">
					<dim>1</dim>
					<dim>128</dim>
					<dim>2</dim>
					<dim>2</dim>
				</port>
			</output>
			<blobs>
				<biases offset="7380832" size="512" />
				<weights offset="7381344" size="262144" />
			</blobs>
		</layer>
		<layer name="relu_p_1" type="ReLU" precision="FP32" id="29">
			<data negative_slope="0.0" />
			<input>
				<port id="0">
					<dim>1</dim>
					<dim>128</dim>
					<dim>2</dim>
					<dim>2</dim>
				</port>
			</input>
			<output>
				<port id="1">
					<dim>1</dim>
					<dim>128</dim>
					<dim>2</dim>
					<dim>2</dim>
				</port>
			</output>
		</layer>
		<layer name="angle_p_fc" type="FullyConnected" precision="FP32" id="30">
			<data out-size="1" quantization_level="FP32" />
			<input>
				<port id="0">
					<dim>1</dim>
					<dim>128</dim>
					<dim>2</dim>
					<dim>2</dim>
				</port>
			</input>
			<output>
				<port id="1">
					<dim>1</dim>
					<dim>1</dim>
				</port>
			</output>
			<blobs>
				<biases offset="7643488" size="4" />
				<weights offset="7643492" size="2048" />
			</blobs>
		</layer>
	</layers>
	<edges>
		<edge from-layer="0" from-port="0" to-layer="1" to-port="0" />
		<edge from-layer="1" from-port="1" to-layer="2" to-port="0" />
		<edge from-layer="2" from-port="1" to-layer="3" to-port="0" />
		<edge from-layer="3" from-port="1" to-layer="4" to-port="0" />
		<edge from-layer="4" from-port="1" to-layer="5" to-port="0" />
		<edge from-layer="5" from-port="1" to-layer="6" to-port="0" />
		<edge from-layer="6" from-port="1" to-layer="7" to-port="0" />
		<edge from-layer="7" from-port="1" to-layer="8" to-port="0" />
		<edge from-layer="8" from-port="1" to-layer="9" to-port="0" />
		<edge from-layer="9" from-port="1" to-layer="10" to-port="0" />
		<edge from-layer="10" from-port="1" to-layer="11" to-port="0" />
		<edge from-layer="11" from-port="1" to-layer="12" to-port="0" />
		<edge from-layer="12" from-port="1" to-layer="13" to-port="0" />
		<edge from-layer="13" from-port="1" to-layer="14" to-port="0" />
		<edge from-layer="14" from-port="1" to-layer="15" to-port="0" />
		<edge from-layer="15" from-port="1" to-layer="16" to-port="0" />
		<edge from-layer="16" from-port="1" to-layer="17" to-port="0" />
		<edge from-layer="17" from-port="1" to-layer="18" to-port="0" />
		<edge from-layer="18" from-port="1" to-layer="19" to-port="0" />
		<edge from-layer="19" from-port="1" to-layer="20" to-port="0" />
		<edge from-layer="20" from-port="1" to-layer="21" to-port="0" />
		<edge from-layer="21" from-port="1" to-layer="28" to-port="0" />
		<edge from-layer="21" from-port="1" to-layer="25" to-port="0" />
		<edge from-layer="21" from-port="1" to-layer="22" to-port="0" />
		<edge from-layer="22" from-port="1" to-layer="23" to-port="0" />
		<edge from-layer="23" from-port="1" to-layer="24" to-port="0" />
		<edge from-layer="25" from-port="1" to-layer="26" to-port="0" />
		<edge from-layer="26" from-port="1" to-layer="27" to-port="0" />
		<edge from-layer="28" from-port="1" to-layer="29" to-port="0" />
		<edge from-layer="29" from-port="1" to-layer="30" to-port="0" />
	</edges>
	<statistics>
		<layer>
			<name>Mul_/Fused_Mul_/FusedScaleShift_</name>
			<min>-2.279965, -1.767808, -0.981326</min>
			<max>10.328615, 13.725512, 14.975616</max>
		</layer>
		<layer>
			<name>Mul_840/FusedScaleShift_</name>
			<min>… -0.289044</min>
			<max>… 13.288777</max>
		</layer>
		<layer>
			<name>Mul_843/FusedScaleShift_</name>
			<min>… -0.336987</min>
			<max>… 5.425342</max>
		</layer>
		<layer>
			<name>Mul_852/FusedScaleShift_</name>
			<min>… -0.410561</min>
			<max>… 7.402451</max>
		</layer>
		<layer>
			<name>Mul_858/FusedScaleShift_</name>
			<min>… -0.196768</min>
			<max>… 6.257163</max>
		</layer>
		<layer>
			<name>Mul_864/FusedScaleShift_</name>
			<min>… -0.503290</min>
			<max>… 7.123014</max>
		</layer>
		<layer>
			<name>angle_p</name>
			<min>… -4.292656</min>
			<max>… 4.113926</max>
		</layer>
		<layer>
			<name>angle_r</name>
			<min>… -2.417534</min>
			<max>… 1.079218</max>
		</layer>
		<layer>
			<name>angle_y</name>
			<min>… -4.317295</min>
			<max>… 2.996998</max>
		</layer>
		<layer>
			<name>conv1</name>
			<min>… -70.250999</min>
			<max>… 72.854477</max>
		</layer>
		<layer>
			<name>conv2</name>
			<min>… -186.920990</min>
			<max>… 39.275200</max>
		</layer>
		<layer>
			<name>conv3</name>
			<min>… -34.454212</min>
			<max>… 7.845444</max>
		</layer>
		<layer>
			<name>conv4</name>
			<min>… -58.786896</min>
			<max>… 46.402367</max>
		</layer>
		<layer>
			<name>conv5</name>
			<min>… -14.952529</min>
			<max>… 5.369038</max>
		</layer>
		<layer>
			<name>conv_fm</name>
			<min>… -5.375211</min>
			<max>… 7.115089</max>
		</layer>
		<layer>
			<name>data</name>
			<min>1.000000, 1.000000, 1.000000</min>
			<max>254.000000, 254.000000, 254.000000</max>
		</layer>
		<layer>
			<name>pool1</name>
			<min>-24.133377, -29.053823, -37.191952, -38.173683, -67.097946, -31.123777, -45.127346, -26.775581, -21.169842, -21.908062, -45.648453, -15.796548, -21.263798, -32.114990, -22.313948, -22.223650</min>
			<max>29.387480, 22.287052, 18.002171, 12.529925, 6.829540, 9.901521, 21.529858, 29.918354, 23.653732, 12.721195, 20.797529, 32.677818, 28.730095, 23.159861, 28.415846, 33.861237</max>
		</layer>
		<layer>
			<name>pool2</name>
			<min>… -0.503290</min>
			<max>… 7.123014</max>
		</layer>
		<layer>
			<name>pool3</name>
			<min>… -20.815456</min>
			<max>… 13.248609</max>
		</layer>
		<layer>
			<name>pool4</name>
			<min>… -0.410561</min>
			<max>… 7.402451</max>
		</layer>
		<layer>
			<name>relu_conv1</name>
			<min>… -0.000000</min>
			<max>… 72.854477</max>
		</layer>
		<layer>
			<name>relu_conv2</name>
			<min>… -0.000000</min>
			<max>… 39.275200</max>
		</layer>
		<layer>
			<name>relu_conv3</name>
			<min>… -0.000000</min>
			<max>… 7.845444</max>
		</layer>
		<layer>
			<name>relu_conv4</name>
			<min>… -0.000000</min>
			<max>… 46.402367</max>
		</layer>
		<layer>
			<name>relu_conv5</name>
			<min>… -0.000000</min>
			<max>… 5.369038</max>
		</layer>
		<layer>
			<name>relu_p_1</name>
			<min>… -0.000000</min>
			<max>… 4.113926</max>
		</layer>
		<layer>
			<name>relu_r_1</name>
			<min>… -0.000000</min>
			<max>… 1.079218</max>
		</layer>
		<layer>
			<name>relu_y_1</name>
			<min>… -0.000000</min>
			<max>… 2.996998</max>
		</layer>
	</statistics>
</net>
